bestNN.ckpt (torch, 3847 bytes, 3 tensors)

weight f4 [10, 20]
00000000: e25f 93bc f080 b5bc 608b 933e e2b3 36be
00000010: 653a 11be 58a5 2cbc 87fe 94bd a641 543d
00000020: d223 3f3e b2c5 0a3c 75f3 05bd e98b afbd
00000030: 7c3c cbba c17c 09bd 91c6 063e d1c7 143c
00000040: 67d1 bc3d d051 a53e ffed 95bc 3da6 7d3d
00000050: 165f 503d e453 08be c1ba 35bc 2d07 993d
00000060: c312 aa3d f399 f53d 299b 54bd ed2c 133e
00000070: 0d66 9a3c 98b2 9c3d fa0b bebd 57d0 8e3d
00000080: 6356 2c3e bf2e 04be 294b 123d 0e89 b7bd
00000090: c36e c9bd 4289 d2bd 6cca 893d 4610 66bd
000000a0: 630d ee3d d1a4 adbd 0c95 68be a94c 733d
000000b0: 5e25 29be 0623 20be 7d5d 00be 0e01 59bd
000000c0: 8dcd 8abe a5f1 80be 34a6 ae3d 0429 d7bd
000000d0: 3545 22be a6a3 53be c505 023d 2e21 043e
000000e0: 06c3 27be a7e0 ecbd c1b1 41be d1d1 e2bd
000000f0: 5572 eeba 719c a7bd 09b9 6abe 7515 963d
00000100: 6896 a8bd 3965 4dbe 0d8e acbd 0e7a d2bd
00000110: bd9a 76be 266e 26be 9e38 fdbd 3e17 5cbe
00000120: 8166 963d af63 903d 7433 bcbc 30af a43d
00000130: adb9 0fbe ff59 f53c 2f68 58be 1f40 8e3c
00000140: d452 e6bd 4553 1cbe b890 33bd 66b6 f63b
00000150: 5fea 823d a8fe 71bd b486 3ebe 39f0 a0bb
00000160: 7598 24bd 7903 42be 7f36 d73d e4b3 c1bd
00000170: 257d 02bd 93ae a8bc 83a7 64be c422 68bc
00000180: 8cbd c8bd e9ac a63c 2364 f43b b20b 99bd
00000190: 4c2b 71bd fba6 673e c29b 08be 6b8a 843d
000001a0: 10cb cdbd 7373 b3bd 24a6 12bd 6169 95bd
000001b0: f39e f23d 014f a3bd d704 b1bc b7a2 56be
000001c0: c67e 1cba 42a5 0bbe 1d5e b1bc 26ed 9abd
000001d0: 6b98 263d 7fda 5ebe 5931 4cbc 47d9 51be
000001e0: 1844 30be 7b61 893d 7efd 15bd f48e c9bd
000001f0: 5daa e03d d9ad 9ebc 80f6 f5bc 3b3b 9fbd
00000200: dd39 9cbd 27ca 393c 4307 413d 4e7d bc3d
00000210: 50f4 25be 57e3 b4bd e010 c0bc 5ce4 b53d
00000220: f83a eabb cb4c f63d 1fbc 6abd df18 eb3d
00000230: 886c 653e a73d e7bd 3c2c 163c 8f14 033e
00000240: 4bd0 3b3c bb50 9fbc 5caa 263c f5ce dbbc
00000250: e651 00be 2c2c 173e e056 ee3d e3b6 b83d
00000260: 3ee9 a73d 434c 433e a946 b2bd 4f79 1f3d
00000270: 0f94 aa3c 2619 aebd d2f5 8b3d 0da7 4d3c
00000280: f8a0 55bc ae22 dabd 9b89 35be c62d 71be
00000290: be45 26bd 9a1a e5bb d5bc 38be 227c b23d
000002a0: 1e96 803d 2eb3 683c 3239 d1bd 3673 9c3d
000002b0: c00c 9dbe 394c 57bc 1e7e 7ebb fe17 3bbd
000002c0: 5803 63be f722 863c 7c81 b33c 82a7 4d3c
000002d0: b002 01be c10c 08be 8b17 db3c 772e d4bc
000002e0: ad2f b83d 2ed7 4abe 7f07 35bd f55e 323d
000002f0: 362f 2b3d d126 8abe afa0 173c c860 bfbd
00000300: 976f 9f3d 1cb3 8dbe d823 5cbe 8940 febd
00000310: 126d edbd b112 bd3d 7ef4 cebc 3e54 043e
-0.017990056 -0.022156209 0.28817272 -0.17842057 -0.14182432 -0.010537468 -0.0727511 0.05182042
0.18666008 0.008469986 -0.03270288 -0.085716076 -0.0015505697 -0.03356624 0.13161685 0.009080843
0.09219628 0.3228898 -0.018301962 0.061926115 0.05087193 -0.13313252 -0.011091889 0.07472072
0.0830436 0.11992254 -0.051905785 0.14372607 0.01884749 0.076512516 -0.09279628 0.069733314
0.16829829 -0.12908457 0.03571621 -0.08961688 -0.09835579 -0.10280086 0.06728062 -0.056167863
0.11623647 -0.08478702 -0.22713107 0.05939928 -0.1651816 -0.1563836 -0.12535663 -0.05297952
-0.27109948 -0.2518436 0.085277945 -0.1050587 -0.15846713 -0.20667896 0.031743784 0.12903282
-0.1638299 -0.115662865 -0.18915464 -0.110751756 -0.0018192033 -0.08184136 -0.22922148 0.07328311
-0.08231813 -0.20058145 -0.084255315 -0.10277186 -0.24082465 -0.16252956 -0.123643145 -0.21493241
0.0734377 0.07050263 -0.022973754 0.08041227 -0.14035673 0.02995014 -0.21133493 0.01736456
-0.11246267 -0.1526614 -0.043839186 0.007529068 0.06392359 -0.05908075 -0.18606073 -0.0049114493
-0.040184457 -0.18946637 0.10508441 -0.094581395 -0.03185763 -0.020591056 -0.22329526 -0.014168445
-0.09801778 0.020346122 0.0074582263 -0.07472934 -0.05887918 0.22622292 -0.13340667 0.06471714
-0.10048497 -0.087622546 -0.035802975 -0.0729549 0.118467234 -0.07974053 -0.021608753 -0.20960508
-0.00059698184 -0.1363726 -0.021651322 -0.07564764 0.0406727 -0.21763037 -0.012462937 -0.20493041
-0.17213476 0.06708046 -0.036618702 -0.09841719 0.10969994 -0.019370006 -0.030024767 -0.07774969
-0.07628224 0.011339701 0.047126066 0.092035875 -0.16206479 -0.08832424 -0.023445547 0.08881447
-0.007148143 0.12026366 -0.057308313 0.11479353 0.22404683 -0.11291056 0.00916582 0.12800811
0.011463235 -0.019447675 0.010172453 -0.026832083 -0.12531242 0.14762944 0.11637664 0.09019258
0.08198784 0.1907206 -0.087048836 0.03893405 0.020822553 -0.085008904 0.06833996 0.012552035
-0.013038866 -0.10651146 -0.17728274 -0.23552617 -0.040593855 -0.0069916965 -0.18040784 0.08715083
0.062786326 0.014202876 -0.10215987 0.07639162 -0.3067379 -0.0131407315 -0.0038832496 -0.045677178
-0.22169244 0.016374094 0.021912329 0.012552144 -0.12598681 -0.13286115 0.026744625 -0.025901062
0.089934684 -0.19808647 -0.044196602 0.04354759 0.04179307 -0.2698274 0.009254619 -0.093446314
0.07784956 -0.27675712 -0.21498048 -0.12414653 -0.11593069 0.09232081 -0.025263067 0.12922761

bias f4 [10]
00000000: cdfc 3a3f 334a 6c3f bc4c ebbd bf45 8fbd
00000010: 3f6a f5bc 5008 143f 28f2 8e3f 6fac 543f
00000020: 4895 18be 098d 91be
0.73041993 0.9230072 -0.11489245 -0.06995725 -0.029957889 0.57825184 1.116765 0.8307561
-0.14900696 -0.28427914

weight f4 [1, 10]
00000000: e127 ecbe bbb5 1ebf d7e8 873e e19f 3d3d
00000010: 3e44 5f3e 1272 0fbf 36b0 52bf 39cf 28bf
00000020: cb21 323e bcd0 a13d
-0.46124175 -0.6199605 0.2654483 0.04629505 0.21803376 -0.5603343 -0.82300127 -0.65941197
0.17395703 0.07901141
