NN1.ckpt (torch, 4743 bytes, 3 tensors)

weight f4 [20, 20]
000000 6f 14 df 3c 0f 3a 1a bd 22 9e 8f 3d 84 f4 96 3d
       0.027231423 -0.037653025 0.07012583 0.073708564
000010 b5 c4 36 be 48 57 b3 bc 00 fd ef 3d d2 86 29 bd
       -0.17848475 -0.021892205 0.11718178 -0.04138834
000020 ba 85 86 bd 97 fa 04 be f2 6f 06 be c1 8b a4 3d
       -0.06568475 -0.12986217 -0.13128641 0.080344684
000030 db a4 97 3d 07 3b 61 be 94 f0 55 be 0d 12 55 3d
       0.074044906 -0.21995173 -0.20892555 0.052019168
000040 c1 f4 86 be a6 2d 1c bd 73 3f dd bd 49 c7 1b be
       -0.26358607 -0.03812947 -0.108031176 -0.1521274
000050 dc 7e dd bd bf c8 d4 3c e8 1c 0d be a9 cc 10 3d
       -0.10815212 0.02597463 -0.13780558 0.03535143
000060 92 b8 50 3e 3a 1d f7 3c de 64 71 3e 31 a1 62 be
       0.20382908 0.030165303 0.23573634 -0.22131802
000070 aa 4d ef 3c c9 d5 bb 3e 8e 2b 16 3e 29 91 29 3e
       0.029211838 0.36686543 0.14665052 0.1655928
000080 c0 03 f0 3d 96 2f 07 3d 9d 84 ca 3d d4 b4 0e 3e
       0.11719465 0.033004366 0.09888575 0.13936168
000090 c5 bf db bd 5b 7c 89 bd ab b2 ff bc 69 4e 11 3d
       -0.107299365 -0.06713172 -0.031213125 0.03547517
0000a0 f8 36 2a be 45 4b 07 be 52 59 e2 bd df 26 5b be
       -0.16622531 -0.13212307 -0.11052193 -0.21401547
0000b0 41 2b 33 be 8b 07 41 3d 43 b5 c1 3e 3b 8d 6a 3d
       -0.17496969 0.047126334 0.37833604 0.057263594
0000c0 b6 85 bb 3c 85 fa 0b 3e c1 3c 18 be da 68 f8 bd
       0.022890907 0.13669784 -0.14866926 -0.12129374
0000d0 11 18 43 be ef 16 31 3e 20 74 94 3e 6e db d6 bd
       -0.1905215 0.17293905 0.28994846 -0.10491072
0000e0 84 e8 96 bd 10 35 56 3d d0 83 c0 3d a2 86 ea 3d
       -0.073685676 0.052296698 0.09400141 0.114514604
0000f0 da d9 54 3e e1 f4 8b bc c0 f6 1b 3e 37 93 ef bd
       0.20786229 -0.01708454 0.15230846 -0.11698001
000100 75 b7 a9 3e 1a 73 76 bc 01 86 93 3e 9d 16 35 be
       0.3314778 -0.015042091 0.28813174 -0.17684408
000110 71 76 38 3e 06 77 d3 3e 5d 44 fb 3d 32 51 b3 3e
       0.18013932 0.41301745 0.12268899 0.35022885
000120 5e de 6a 3c c5 57 aa bb 7c d9 11 bd 8d 99 9c 3e
       0.014335243 -0.005198451 -0.0356078 0.305859
000130 92 a8 01 3d 65 86 e4 bd 32 df 7e 3d 1c 82 4d 3e
       0.0316549 -0.11158446 0.062224574 0.20069164
000140 67 82 12 be 26 52 6b bd 67 c6 14 3e 66 13 27 bd
       -0.14307557 -0.05745139 0.1452881 -0.040789984
000150 36 12 ce bc 3d bb 07 3e 93 0b c9 3e 17 11 8f 3d
       -0.025155168 0.1325502 0.39266643 0.069856815
000160 b2 47 96 bc 23 2e b6 3e 0f 9d 94 3d 6f fe f3 3d
       -0.018344734 0.35582075 0.07256519 0.11913764
000170 76 09 70 3d 8d b2 af bc 26 39 ca 3d 1f a1 b9 3e
       0.058602773 -0.021447444 0.098741814 0.36255738
000180 6c b7 6d 3e ac bb 56 3e 69 4d b8 3c 0e 92 4b 3d
       0.23214501 0.20970029 0.02249785 0.049699835
000190 d2 84 26 be 9b fe 21 3e fe ff 49 be 3f f4 c5 3b
       -0.16261604 0.1581978 -0.1972656 0.0060410793
0001a0 18 16 1b 3e 27 b1 03 3e d8 11 b0 3e fd 96 18 be
       0.15145147 0.12860547 0.34388614 -0.14901347
0001b0 52 dd 2d 3e 65 0e f3 3e d0 f6 dd bb 19 eb 0c bc
       0.16978958 0.4747192 -0.006773807 -0.0086009735
0001c0 82 20 c7 3c 43 62 aa be 02 fa 09 be 9d 67 d5 3e
       0.024307493 -0.33278093 -0.13474277 0.41680613
0001d0 cc b6 04 3c a1 9a 12 3e e5 08 7d 3c bf 37 fb 3c
       0.008100223 0.14316799 0.015444015 0.03066623
0001e0 06 6c d1 bd 13 99 81 be a9 e4 9b bd 8e 58 c3 bd
       -0.10225682 -0.253121 -0.07611973 -0.09538375
0001f0 25 77 15 3e 4b e4 d3 bd e4 16 28 bd a3 38 08 bd
       0.14596231 -0.10346278 -0.041037455 -0.033257138
000200 5e 3b c2 bd 03 8a 6c 3d f9 80 ea bd eb 31 4b be
       -0.0948398 0.057748806 -0.11450381 -0.19843261
000210 38 72 85 bd ec 11 08 3d 34 01 a5 ba fa 22 2b bb
       -0.06515926 0.033220217 -0.001258886 -0.0026113377
000220 d9 75 9b bd d4 50 0e 3d d0 6b 1d be f1 ff 1b be
       -0.07590837 0.034745052 -0.15373158 -0.15234353
000230 18 e0 41 be 0f 37 c5 3d 91 74 5c 3d 17 c2 35 be
       -0.18933141 0.09629642 0.053822104 -0.1774982
000240 f9 c9 8c be c2 c4 0e be 3c 80 0c be f4 0b 34 bc
       -0.27497843 -0.13942245 -0.13720793 -0.010989178
000250 0d ac d7 3a 48 fd 9e 3c 70 8b 48 be 30 32 ca 3d
       0.0016454473 0.019407883 -0.19584441 0.09872854
000260 c1 ec 19 be e3 3c a7 bd 7b 27 25 be 17 96 bf bd
       -0.1503172 -0.0816591 -0.16128342 -0.09354799
000270 31 c7 c5 3c 77 f3 de bd 19 f7 29 bc e1 cf 94 3d
       0.024142833 -0.10886281 -0.010373854 0.07266212
000280 8f 54 e1 3d f0 76 05 be 43 02 dc bd a7 04 dd 3c
       0.110024564 -0.13033652 -0.10742619 0.026979757
000290 1e 24 0d 3e c6 f9 ea 3c de 7a e4 3e f4 12 a9 bd
       0.13783309 0.028683554 0.4462499 -0.08255568
0002a0 ec f1 ff 3b 75 77 17 3f 0a a9 47 be 83 7e a0 3c
       0.0078108218 0.5916665 -0.19498077 0.019591575
0002b0 a2 cb 64 be 80 3a 4d be 91 02 58 3e 1c 64 b5 3e
       -0.22343305 -0.20041847 0.21094729 0.3542794
0002c0 24 56 2f bb 6f 6d 28 be 7e 78 29 be 5d e5 b9 39
       -0.0026754225 -0.16447996 -0.1654987 0.0003545684
0002d0 f0 39 d7 3d 7e 9b 7c 3e 9f 74 0c bc a1 64 39 bd
       0.105090976 0.2466869 -0.0085727265 -0.045261983
0002e0 b0 14 65 3d 38 59 18 3e 35 04 e4 3d 68 f1 3d be
       0.055927932 0.14877784 0.11133615 -0.1854912
0002f0 bb 5d 02 bc 2c d8 22 3f f6 6f 53 3e b5 88 4e 3e
       -0.007956917 0.636111 0.20648178 0.20169337
000300 e9 b3 30 3b d4 d6 bc bd ca 91 10 3e ad 70 dc 3e
       0.0026962704 -0.09220663 0.14118114 0.43054715
000310 17 89 5f 3e 76 c2 cd 3d 93 cd 2a be 9c fd 8a bc
       0.2182964 0.10046856 -0.16679983 -0.016966633
000320 6b 62 3f be 05 6e 84 be b7 77 32 be 57 c2 9e bb
       -0.18689887 -0.25865188 -0.1742848 -0.0048449445
000330 dc 2b 77 be 47 d4 aa bc 2c 53 d7 3c 33 56 2b be
       -0.24137825 -0.020853175 0.026284777 -0.16732101
000340 e3 7f 54 be fd 96 45 be 89 7d 4d 3d e2 da b6 bd
       -0.2075191 -0.19295879 0.050168548 -0.08928467
000350 94 56 f0 bd 3b 80 0c 3d 2e 6a 75 3d f1 2b d0 bd
       -0.117352635 0.034301978 0.059915714 -0.10164631
000360 5c e9 14 be 50 7b 9f bd c7 44 34 be 9a 13 84 bd
       -0.14542145 -0.07787192 -0.17604361 -0.06449051
000370 3c 06 82 3e 08 58 e5 3d 2e a7 29 be 4f 60 1e 3e
       0.2539538 0.11198431 -0.1656768 0.15466426
000380 8e 95 36 3d 49 49 fd 3c 9d 7a b6 3e 47 95 df 3d
       0.04457622 0.030918734 0.35640422 0.10917144
000390 62 1e 74 3e 23 01 09 3f f4 5f b0 bc 43 74 92 3e
       0.23839715 0.5351736 -0.021530129 0.28604326
0003a0 a7 f4 b4 bd ef 00 d1 3d 67 1e 52 bd b5 fa 47 3e
       -0.08835726 0.10205256 -0.051298525 0.19529231
0003b0 06 4f 5e 3e 27 f7 f9 3d 3b 55 3d bc 16 99 4f bc
       0.21709833 0.12205344 -0.011555965 -0.012670776
0003c0 78 07 06 3e 11 08 17 3d a1 8e d3 bd 1f 39 0e 3e
       0.13088787 0.036872927 -0.10329939 0.13888977
0003d0 ff 4a 59 3e 2a 06 b3 3c 0b a2 ed 3e b0 5a 7e be
       0.21220015 0.021853525 0.4641269 -0.24839282
0003e0 14 34 e5 3b 02 a4 9d 3e e5 fc 61 bd 26 d3 90 bd
       0.0069947336 0.3078919 -0.05517282 -0.07071523
0003f0 14 de a5 be ae 52 25 3d c5 f0 29 3d 19 2e 39 3e
       -0.32395995 0.040362053 0.04148938 0.18083991

bias f4 [20]
000000 7b da 20 be ae f3 32 3f 7b 77 99 3e 0d 46 f5 3e
       -0.15708344 0.69903076 0.2997397 0.47905007
000010 f7 7d 4b 3f 3a d7 0a 3f 12 fc 4b bc 03 36 16 be
       0.7948908 0.5423466 -0.012450235 -0.14669041
000020 eb 4a 3f 3f 1e f6 07 3f e5 12 ca 3d f6 f2 d3 3e
       0.7472369 0.5310992 0.09866885 0.41396302
000030 1d 41 88 3e c9 a3 d8 be da 66 1c 3f 54 aa 29 3f
       0.26612177 -0.42312458 0.6109444 0.66275525
000040 b4 35 dc 3e 8e 35 2a 3f 5f 7a 3f 3f 5c 97 91 bd
       0.43009722 0.6648797 0.747961 -0.07108948

weight f4 [1, 20]
000000 91 39 16 3e 4c f9 08 bf 1a 2d d4 be f7 e3 4e be
       0.14670397 -0.53505397 -0.4144066 -0.20204149
000010 e2 55 4f be 74 fd bf be e7 79 11 3e 03 95 5a 3d
       -0.20247605 -0.37498057 0.14206658 0.053364765
000020 4a c4 f8 be a8 d8 41 be 32 4a a2 3d 1a 4e 10 be
       -0.48587257 -0.18930304 0.07924308 -0.14092293
000030 48 4b aa be 0e ec eb 3e 91 92 06 bf 57 b9 83 be
       -0.3326056 0.46078533 -0.5256739 -0.2572734
000040 65 86 90 be 6d 58 c8 be b8 84 07 bf a4 56 5c 3d
       -0.28227535 -0.39129964 -0.5293689 0.053793564
