w1_0.ckpt (torch, 4749 bytes, 3 tensors)

weight f4 [20, 20]
000000 5e e1 8b 3e 99 ea 5a 3e 0f e1 b3 3c a8 8f f4 3d
       0.2732038 0.21378554 0.021957902 0.11941463
000010 df 14 bc 3e 98 08 43 3d 5b be 94 3e 26 ea 80 3d
       0.36734673 0.047615618 0.2905148 0.0629466
000020 83 a6 96 bd 8b f8 e4 3e 24 4f a6 3e b7 ca 24 3e
       -0.07355978 0.44720873 0.32482255 0.16092955
000030 45 b1 53 3e e5 e9 3b bd 3a 87 b9 bd a0 01 1d 3f
       0.20673092 -0.045877356 -0.090589955 0.61330605
000040 c4 5b 83 3e ea 1c 51 bc 0b a6 16 3c e6 53 88 3e
       0.2565595 -0.012763241 0.009194861 0.2662651
000050 f6 6b 50 be 58 6f 4b 3d 18 6b 61 be 2e 62 0e be
       -0.20353684 0.049666733 -0.2201351 -0.1390464
000060 22 59 b7 bd 13 c0 ea bd 5c 36 ba bd b5 74 c0 3d
       -0.089525476 -0.114624165 -0.090923995 0.0939726
000070 37 95 83 3d 03 76 a6 be 02 35 68 be a6 d7 01 be
       0.06424945 -0.3251191 -0.22676471 -0.1267992
000080 be d6 99 3d 24 28 5a be 4d db 6d bd d4 47 97 3c
       0.07511662 -0.21304375 -0.05807047 0.018466868
000090 91 f5 6a bd 63 1d 6b be 23 1f 0a be 78 99 05 be
       -0.057363097 -0.22960429 -0.1348844 -0.13046825
0000a0 84 a5 21 3d 30 f1 f9 3c be 3b b4 3c 40 24 a5 3b
       0.03946449 0.030510515 0.022001144 0.0050397217
0000b0 c2 a6 b3 bb 20 3a a6 3e 01 95 00 3f b7 9a 37 be
       -0.0054825256 0.3246622 0.5022736 -0.17930113
0000c0 14 00 aa bd f0 84 1e 3f 9e f8 d6 3b d9 64 17 bd
       -0.08300796 0.61921597 0.006560399 -0.03696141
0000d0 13 bf 1c 3e 26 46 b8 bd b2 54 8b bb db 39 b2 3e
       0.15307264 -0.08997755 -0.00425204 0.34809765
0000e0 7a 0e 76 3e 76 07 0e bd a9 84 06 be 9e 0e 1b 3e
       0.2402896 -0.034675084 -0.13136543 0.15142295
0000f0 0d 34 78 bd 82 75 06 3e 84 9c 73 3d b1 dd f2 3d
       -0.060596514 0.13130763 0.059475437 0.118586905
000100 01 59 b1 3e 94 5f c9 3d 07 1d 08 3f 3a 6d 76 bc
       0.34638217 0.09832683 0.5316929 -0.01504069
000110 56 ec b0 3d 02 ce 2a 3f f6 86 00 3e b3 84 64 3e
       0.086388275 0.6672059 0.12551484 0.22316246
000120 fc 69 b1 3d 1c 08 d4 bd af 78 16 be cb f9 f0 3e
       0.08662793 -0.10353109 -0.14694475 0.47065577
000130 21 dd 44 3b 41 c9 9e bd 00 8c 0b bd b2 8b 5a 3e
       0.003003903 -0.0775323 -0.03406906 0.21342352
000140 79 40 54 3e 4f 82 d0 3d 8a 93 59 3e cd a3 56 3e
       0.2072772 0.101811044 0.21247688 0.20960923
000150 fe 94 9f 3d 1f 22 81 3c 93 5b df be ef 01 92 3e
       0.0779209 0.01576334 -0.43624553 0.285171
000160 ce fd 1d 3e 40 95 ad be c5 b6 a4 3e 66 be aa 3c
       0.1542885 -0.3390293 0.32170692 0.020842742
000170 aa 24 c0 3e f9 f7 06 bd 9d 79 45 3d e6 d9 e9 bd
       0.37527972 -0.03295133 0.048211683 -0.11418514
000180 70 2e 20 3e 90 18 13 3c a7 58 59 3e 56 ed 51 3e
       0.15642715 0.008978024 0.21225224 0.20500693
000190 5c ab 03 3e 19 db 4f 3e fb 57 9e 3d 7a 0f 05 3d
       0.12858337 0.20298423 0.07731625 0.032485463
0001a0 41 53 48 3b d3 d8 23 3d e1 1c c7 3e 4e 16 13 bd
       0.0030567201 0.0400017 0.3888922 -0.035909943
0001b0 0a bb c0 bd 6f 02 1c 3f 30 14 2e 3e 8b a9 5b bd
       -0.09410675 0.60941213 0.16999888 -0.053628486
0001c0 3c e0 33 be 09 ee b5 bd 62 cd ef 3d 23 3f 13 3f
       -0.17566007 -0.08883292 0.117090955 0.57518214
0001d0 9a 4d 69 3e a7 bd a5 3d 7c 03 0b 3e 33 55 6e 3e
       0.22783509 0.08092814 0.13575548 0.23274688
0001e0 45 38 d8 3d 64 21 5a be d9 83 2a be 1a a4 32 3b
       0.105576076 -0.213018 -0.16651858 0.0027258457
0001f0 6e c0 1d bd 3f 89 8e bd f0 7f 64 3e 2f a9 be bd
       -0.038513593 -0.06959771 0.2231443 -0.09309613
000200 f4 40 03 bd 4c 01 02 be c1 ed c2 3d 1d 2b 68 3d
       -0.032044366 -0.12695807 0.09518004 0.05668174
000210 32 d3 29 bd 67 0d 0c be 3d c2 89 bd 9f 5f 0b be
       -0.041461177 -0.13676988 -0.06726501 -0.13610695
000220 07 34 39 3d 1e 39 f4 bc 75 42 d7 bd 96 a2 a1 3d
       0.045215633 -0.029812392 -0.105107225 0.07892339
000230 bf fb 1c 3e 15 31 94 bd f6 e3 6a be 79 a9 5c 3e
       0.15330409 -0.07235924 -0.22938523 0.21549024
000240 26 a1 26 3e 2c 72 13 3d 42 3e e8 3e 82 4e 2f 3d
       0.16272411 0.035997555 0.4536 0.04279948
000250 72 91 80 3d 68 7e 83 3e 30 ac 46 3e 36 94 ff bd
       0.062777415 0.25682378 0.19401622 -0.12479441
000260 75 56 6e be d2 a0 5f bd f1 fe 77 bd 52 1a f3 3e
       -0.23275168 -0.05459673 -0.060545865 0.47481018
000270 a0 fb 03 3c eb ae 2e 3e f8 94 34 3e 01 7c e0 bc
       0.008055598 0.17058913 0.17634952 -0.02740288
000280 93 16 76 bd 0a 87 d4 bc 9a 70 b8 3d ef 23 81 bd
       -0.060080122 -0.025943298 0.09005852 -0.06305682
000290 83 98 16 3e a9 3e 14 bd 1f a7 0e 3f e1 eb 36 be
       0.14706616 -0.03619257 0.55723757 -0.17863418
0002a0 3b f0 90 bc f3 ab a2 3e 6d 04 32 3e 17 c1 d7 3d
       -0.017692676 0.31771812 0.17384501 0.10534876
0002b0 0c 00 b2 bd 60 ac 41 3e 81 a1 49 3e da 77 e4 3e
       -0.08691415 0.18913412 0.19690515 0.4462269
0002c0 d7 ce 6f bc 58 4b b3 bd 18 60 27 3e 09 10 11 3d
       -0.014636717 -0.08754605 0.1634525 0.035415683
0002d0 d8 fc b9 3d f5 8d 4b 3e 63 36 97 3e c4 55 1a bd
       0.09081429 0.19878371 0.2953368 -0.03767945
0002e0 5c ea 96 3d 10 49 6e 3e d4 d8 c6 be 56 d6 92 3d
       0.07368919 0.23270059 -0.38837302 0.071697876
0002f0 90 c9 7e 3e 97 94 ba be aa 09 7b 3e 1e f6 02 3e
       0.24881577 -0.3644149 0.24515405 0.12789199
000300 5e f6 c2 3d ba be 8e 3e eb 03 14 3e 2f 66 12 bd
       0.09519647 0.27879888 0.1445462 -0.03574198
000310 b6 a8 67 3e 73 45 94 bb 50 52 74 3e bb 23 fe 3d
       0.22622952 -0.0045248806 0.23859525 0.12409159
000320 75 27 a6 bd 56 b6 8f 3d ed 0b e8 be 6c e2 be 3c
       -0.081129946 0.070172 -0.453216 0.023301326
000330 40 e1 95 bd 50 51 d5 3c 6c b5 c8 3e 3b 0e ae be
       -0.07318354 0.02603975 0.39200914 -0.33995232
000340 00 e8 c1 bd 8d 0b b8 3e 31 36 00 be 51 b8 63 3d
       -0.094680786 0.35946313 -0.12520672 0.0555957
000350 25 68 cd bd 7d 78 db be 58 b1 8e bd 7b 43 d0 bd
       -0.100296296 -0.42865363 -0.069674194 -0.10169121
000360 90 6e 9e bd 65 bd d8 3d 8d 79 5a 3e 54 5d a8 bd
       -0.07735932 0.10582999 0.2133543 -0.08220926
000370 2f ea 25 bd d9 9b 66 3d b7 d6 55 be c1 f7 85 3d
       -0.040506538 0.05630097 -0.20882688 0.06541396
000380 7d c8 4a 3c 21 22 35 be 43 fb 39 3e c4 95 39 be
       0.012376902 -0.176888 0.18162255 -0.18123537
000390 c3 ca 57 be 54 0a 7d bc 30 73 ff 3d 0c 8e 5c be
       -0.21073441 -0.015444357 0.12473142 -0.21538562
0003a0 ec ac 7c bd 3b 88 c5 3d 55 fd 22 bd 8c 25 0b 3e
       -0.06168835 0.096451245 -0.039792378 0.13588542
0003b0 1c aa 1f 3c 94 e1 1a bd 92 ec 50 bd 2e 9c b8 3d
       0.009745147 -0.037812784 -0.05100686 0.09014164
0003c0 3c 2f 6a 3e f5 f0 95 bd c9 20 03 be b6 14 09 be
       0.22869581 -0.073213495 -0.12805475 -0.13386807
0003d0 06 2c 51 3d c1 ec 9c bd 65 aa 84 3e c6 b1 1a be
       0.051067375 -0.07662345 0.2591125 -0.15106878
0003e0 1f af 3f 3e 4b 7f 0c 3f 8f 61 92 3a 28 1b 3c 3e
       0.18719147 0.54881734 0.0011167991 0.18369734
0003f0 a4 4d 56 be 6f 29 ba be c3 d8 bc bd 5c e8 14 3f
       -0.20928055 -0.36359736 -0.092210315 0.5816705

bias f4 [20]
000000 06 e5 2d 3f ba 7e db 3c 22 ba 0f 3f 21 a3 02 3f
       0.6792759 0.026793826 0.5614339 0.51030165
000010 5b dd 95 be 05 37 fb 3e 45 ef 48 be 60 7c b8 3e
       -0.29270443 0.49065414 -0.19622524 0.3603239
000020 f5 2c 15 3f 6f 4b d4 be dc db 08 3f 77 f3 5d be
       0.58271724 -0.414638 0.5346048 -0.21674906
000030 31 17 08 3f b3 74 e9 bd 3e 69 52 be 0c 54 7b be
       0.5316039 -0.11399212 -0.20547959 -0.2454378
000040 4b 81 8b 3e 79 22 b0 bc bc d8 15 3f 5d 3f 33 3f
       0.2724708 -0.021500813 0.58533835 0.7001856

weight f4 [1, 20]
000000 26 e9 7e be 78 4c 9b 3d 6e 29 e7 be 7e 7c c6 be
       -0.24893627 0.07582945 -0.45148796 -0.38766855
000010 12 9f c4 3e fc b8 6f be ff ee 16 3d 63 43 c6 be
       0.3840261 -0.2341041 0.03684902 -0.38723287
000020 df 9b 01 bf 73 a1 bc 3e 47 b8 41 bf f0 a3 33 3c
       -0.50628465 0.36841926 -0.7567181 0.010964379
000030 d3 26 53 bf 7b 6d 80 3d ba 6b 5d 3d 67 27 28 3e
       -0.82481116 0.06270882 0.054057814 0.16421281
000040 a2 22 67 be 6d ba 97 3d c7 cf 8c be 65 23 0a bf
       -0.22571805 0.07408605 -0.27502272 -0.5396026
